Model: "TreePolicyNet"
_________________________________________________________________
Layer (type)                 Output Shape              Param #   
=================================================================
Conv_5x5 (Conv2D)            (None, 15, 15, 128)       6528      
_________________________________________________________________
Conv1 (Conv2D)               (None, 15, 15, 128)       147584    
_________________________________________________________________
Conv2 (Conv2D)               (None, 15, 15, 128)       147584    
_________________________________________________________________
Conv_1x1 (Conv2D)            (None, 15, 15, 1)         129       
_________________________________________________________________
flatten_2 (Flatten)          (None, 225)               0         
_________________________________________________________________
softmax_2 (Softmax)          (None, 225)               0         
=================================================================
Total params: 301,825
Trainable params: 301,825
Non-trainable params: 0
_________________________________________________________________
model ready


train: (940350, 15, 15, 2) (940350,)
validation: (50000, 15, 15, 2) (50000,)
test: (50000, 15, 15, 2) (50000,)
data ready


Epoch 1/10
14693/14693 [==============================] - ETA: 0s - loss: 1.9955 - accuracy: 0.4457
…
