Model: "TreePolicyNet"
_________________________________________________________________
Layer (type)                 Output Shape              Param #   
=================================================================
Conv_5x5 (Conv2D)            (None, 15, 15, 128)       6528      
_________________________________________________________________
Conv1 (Conv2D)               (None, 15, 15, 64)        73792     
_________________________________________________________________
Conv2 (Conv2D)               (None, 15, 15, 64)        36928     
_________________________________________________________________
Conv3 (Conv2D)               (None, 15, 15, 64)        36928     
_________________________________________________________________
Conv_1x1 (Conv2D)            (None, 15, 15, 1)         65        
_________________________________________________________________
flatten_1 (Flatten)          (None, 225)               0         
_________________________________________________________________
softmax_1 (Softmax)          (None, 225)               0         
=================================================================
Total params: 154,241
Trainable params: 154,241
Non-trainable params: 0
_________________________________________________________________
model ready


train: (940350, 15, 15, 2) (940350,)
validation: (50000, 15, 15, 2) (50000,)
test: (50000, 15, 15, 2) (50000,)
data ready


Epoch 1/5
7347/7347 [==============================] - ETA: 0s - loss: 2.0164 - accuracy: 0.4420
…
