Model: "RolloutPolicyNet"
_________________________________________________________________
Layer (type)                 Output Shape              Param #   
=================================================================
Conv_5x5 (Conv2D)            (None, 15, 15, 64)        3264      
_________________________________________________________________
Conv1 (Conv2D)               (None, 15, 15, 32)        18464     
_________________________________________________________________
Conv2 (Conv2D)               (None, 15, 15, 32)        9248      
_________________________________________________________________
Conv_1x1 (Conv2D)            (None, 15, 15, 1)         33        
_________________________________________________________________
flatten (Flatten)            (None, 225)               0         
_________________________________________________________________
softmax (Softmax)            (None, 225)               0         
=================================================================
Total params: 31,009
Trainable params: 31,009
Non-trainable params: 0
_________________________________________________________________
model ready


train: (940350, 15, 15, 2) (940350,)
validation: (50000, 15, 15, 2) (50000,)
test: (50000, 15, 15, 2) (50000,)
data ready


Epoch 1/5
7347/7347 [==============================] - ETA: 0s - loss: 2.1793 - accuracy: 0.4108 - sparse_top_k_categorical_accuracy: 0.6406
…
