Model: "TreePolicyNet"
_________________________________________________________________
Layer (type)                 Output Shape              Param #   
=================================================================
Conv1 (Conv2D)               (None, 15, 15, 256)       12800     
_________________________________________________________________
bn1 (BatchNormalization)     (None, 15, 15, 256)       1024      
_________________________________________________________________
relu1 (ReLU)                 (None, 15, 15, 256)       0         
_________________________________________________________________
Conv2_1x1 (Conv2D)           (None, 15, 15, 256)       65792     
_________________________________________________________________
Conv2_3x3 (Conv2D)           (None, 15, 15, 256)       589824    
_________________________________________________________________
bn2 (BatchNormalization)     (None, 15, 15, 256)       1024      
_________________________________________________________________
relu2 (ReLU)                 (None, 15, 15, 256)       0         
_________________________________________________________________
Conv3_1x1 (Conv2D)           (None, 15, 15, 128)       32896     
_________________________________________________________________
Conv3_3x3 (Conv2D)           (None, 15, 15, 128)       147456    
_________________________________________________________________
bn3 (BatchNormalization)     (None, 15, 15, 128)       512       
_________________________________________________________________
relu3 (ReLU)                 (None, 15, 15, 128)       0         
_________________________________________________________________
Conv4_1x1 (Conv2D)           (None, 15, 15, 64)        8256      
_________________________________________________________________
Conv1_3x3 (Conv2D)           (None, 15, 15, 64)        36864     
_________________________________________________________________
bn4 (BatchNormalization)     (None, 15, 15, 64)        256       
_________________________________________________________________
relu4 (ReLU)                 (None, 15, 15, 64)        0         
_________________________________________________________________
Conv5_1x1 (Conv2D)           (None, 15, 15, 64)        4160      
_________________________________________________________________
Conv5_3x3 (Conv2D)           (None, 15, 15, 1)         577       
_________________________________________________________________
flatten (Flatten)            (None, 225)               0         
_________________________________________________________________
softmax (Softmax)            (None, 225)               0         
=================================================================
Total params: 901,441
Trainable params: 900,033
Non-trainable params: 1,408
_________________________________________________________________
model ready


train: (890350, 15, 15, 2) (890350,)
validation: (50000, 15, 15, 2) (50000,)
test: (50000, 15, 15, 2) (50000,)
data ready


Epoch 1/2
6956/6956 [==============================] - ETA: 0s - loss: 1.9327 - accuracy: 0.4574 - sparse_top_k_categorical_accuracy: 0.6866
…
