Model: "TreePolicyNet"
_________________________________________________________________
Layer (type)                 Output Shape              Param #   
=================================================================
Conv_5x5 (Conv2D)            (None, 15, 15, 128)       6528      
_________________________________________________________________
bn1 (BatchNormalization)     (None, 15, 15, 128)       512       
_________________________________________________________________
Conv1_1x1 (Conv2D)           (None, 15, 15, 128)       16512     
_________________________________________________________________
Conv1_3x3 (Conv2D)           (None, 15, 15, 256)       295168    
_________________________________________________________________
bn2 (BatchNormalization)     (None, 15, 15, 256)       1024      
_________________________________________________________________
Conv2_1x1 (Conv2D)           (None, 15, 15, 128)       32896     
_________________________________________________________________
Conv2_3x3 (Conv2D)           (None, 15, 15, 256)       295168    
_________________________________________________________________
bn3 (BatchNormalization)     (None, 15, 15, 256)       1024      
_________________________________________________________________
Conv3_1x1 (Conv2D)           (None, 15, 15, 128)       32896     
_________________________________________________________________
Conv3_3x3 (Conv2D)           (None, 15, 15, 256)       295168    
_________________________________________________________________
bn4 (BatchNormalization)     (None, 15, 15, 256)       1024      
_________________________________________________________________
Conv4_1x1 (Conv2D)           (None, 15, 15, 128)       32896     
_________________________________________________________________
Conv4_3x3 (Conv2D)           (None, 15, 15, 1)         1153      
_________________________________________________________________
flatten (Flatten)            (None, 225)               0         
_________________________________________________________________
softmax (Softmax)            (None, 225)               0         
=================================================================
Total params: 1,011,969
Trainable params: 1,010,177
Non-trainable params: 1,792
_________________________________________________________________
model ready


train: (940350, 15, 15, 2) (940350,)
validation: (50000, 15, 15, 2) (50000,)
test: (50000, 15, 15, 2) (50000,)
data ready


Epoch 1/5
7347/7347 [==============================] - ETA: 0s - loss: 1.9475 - accuracy: 0.4551 - sparse_top_k_categorical_accuracy: 0.6826
…
