Model: "RolloutPolicyNet"
_________________________________________________________________
Layer (type)                 Output Shape              Param #   
=================================================================
Conv_5x5 (Conv2D)            (None, 15, 15, 128)       6528      
_________________________________________________________________
Conv1 (Conv2D)               (None, 15, 15, 32)        36896     
_________________________________________________________________
Conv_1x1 (Conv2D)            (None, 15, 15, 1)         33        
_________________________________________________________________
flatten (Flatten)            (None, 225)               0         
_________________________________________________________________
softmax (Softmax)            (None, 225)               0         
=================================================================
Total params: 43,457
Trainable params: 43,457
Non-trainable params: 0
_________________________________________________________________
model ready


train: (940350, 15, 15, 2) (940350,)
validation: (50000, 15, 15, 2) (50000,)
test: (50000, 15, 15, 2) (50000,)
data ready


Epoch 1/10
7347/7347 [==============================] - ETA: 0s - loss: 2.4034 - accuracy: 0.3502
…
