Model: "RolloutPolicyNet"
_________________________________________________________________
Layer (type)                 Output Shape              Param #   
=================================================================
Conv_5x5 (Conv2D)            (None, 15, 15, 64)        3264      
_________________________________________________________________
Conv1 (Conv2D)               (None, 15, 15, 32)        18464     
_________________________________________________________________
Conv_1x1 (Conv2D)            (None, 15, 15, 1)         33        
_________________________________________________________________
flatten_1 (Flatten)          (None, 225)               0         
_________________________________________________________________
softmax_1 (Softmax)          (None, 225)               0         
=================================================================
Total params: 21,761
Trainable params: 21,761
Non-trainable params: 0
_________________________________________________________________
model ready


train: (940350, 15, 15, 2) (940350,)
validation: (50000, 15, 15, 2) (50000,)
test: (50000, 15, 15, 2) (50000,)
data ready


Epoch 1/10
14693/14693 [==============================] - ETA: 0s - loss: 2.4139 - accuracy: 0.3466
…
