Model: "ValueNetwork"
_________________________________________________________________
Layer (type)                 Output Shape              Param #   
=================================================================
Conv_5x5 (Conv2D)            (None, 11, 11, 128)       6528      
_________________________________________________________________
Conv1 (Conv2D)               (None, 11, 11, 128)       147584    
_________________________________________________________________
MaxPool1 (MaxPooling2D)      (None, 6, 6, 128)         0         
_________________________________________________________________
Conv2 (Conv2D)               (None, 6, 6, 128)         147584    
_________________________________________________________________
flatten (Flatten)            (None, 4608)              0         
_________________________________________________________________
FC_1 (Dense)                 (None, 512)               2359808   
_________________________________________________________________
FC_2 (Dense)                 (None, 1)                 513       
=================================================================
Total params: 2,662,017
Trainable params: 2,662,017
Non-trainable params: 0
_________________________________________________________________

 data ready
Epoch 1/5
3438/3438 [==============================] - ETA: 0s - loss: 0.5207 - accuracy: 0.7292
Epoch 00001: saving model to ./gdrive/My Drive/colab_mount/model/value/swap/cp-001.ckpt
…
