Model: "RolloutPolicyNet"
_________________________________________________________________
Layer (type)                 Output Shape              Param #   
=================================================================
Conv_5x5 (Conv2D)            (None, 15, 15, 64)        3264      
_________________________________________________________________
Conv1 (Conv2D)               (None, 15, 15, 64)        36928     
_________________________________________________________________
Conv_1x1 (Conv2D)            (None, 15, 15, 1)         65        
_________________________________________________________________
flatten_1 (Flatten)          (None, 225)               0         
_________________________________________________________________
softmax_1 (Softmax)          (None, 225)               0         
=================================================================
Total params: 40,257
Trainable params: 40,257
Non-trainable params: 0
_________________________________________________________________
model ready


train: (940350, 15, 15, 2) (940350,)
validation: (50000, 15, 15, 2) (50000,)
test: (50000, 15, 15, 2) (50000,)
data ready


Epoch 1/10
7346/7347 [============================>.] - ETA: 0s - loss: 2.4103 - accuracy: 0.3484
…
